weights/weight-0.pth (torch, 893515 bytes, 21 tensors)

conv1.0.weight f4 [56, 1, 56, 1]
0	0xbc58d999	-0.013235473
1	0xbc6ace8c	-0.014331471
2	0x3991d2fc	0.0002781375
3	0x3e21461b	0.157494
4	0xbe24404f	-0.16040157
5	0x3cd63290	0.026147157
6	0xbd276869	-0.040871058
7	0xbd0ee495	-0.03488596
8	0x3e8ab373	0.27090034
9	0x3eab3957	0.33442184
10	0x3e86455e	0.26224798
11	0xbe95506b	-0.29162917
12	0xbe4fe9e4	-0.20304066
13	0x3d221315	0.03956898
14	0x3d9f052c	0.07764658
15	0x3bb96c34	0.005658651
16	0x3ba75441	0.0051064794
17	0xbdc7fc60	-0.097649336
18	0x3daa5f4d	0.083189584
19	0xbda620d2	-0.08111729
20	0xbe48d61b	-0.19612925
21	0xbbb91904	-0.005648734
22	0x3ad29821	0.0016067066
23	0x3cb6ea5c	0.022328548
24	0x3b99e2eb	0.00469624
25	0x3c82db9c	0.015973859
26	0xbe719f5c	-0.23595947
27	0x3d030c55	0.031994183
28	0x3c29d246	0.0103650745
29	0x3de1df75	0.11028949
30	0x3dec196f	0.115282886
31	0xbc82aa3d	-0.015950317
32	0xbca09b8e	-0.019605424
33	0xbcdc8a4b	-0.026921412
34	0x3c041908	0.008062609
35	0xbd1c49dc	-0.038156375
36	0xbd122d26	-0.03568759
37	0x3c966eab	0.018363317
38	0x3a7e859f	0.0009709242
39	0x3e54edb8	0.20793808
40	0xbd55e69c	-0.05222188
41	0xbce8dcf5	-0.028425673
42	0x3d47c273	0.048769426
43	0x3d9f030e	0.077642545
44	0x3e47c598	0.1950897
45	0x3dc4f778	0.096175134
46	0x3ce033fe	0.027368542
47	0xbd19d3b3	-0.037555408
48	0xbc2afdf0	-0.01043652
49	0xbcca6444	-0.024706014
50	0x3be81083	0.0070820465
51	0x3dce8810	0.100845456
52	0xbe928f61	-0.28625014
53	0x3d074624	0.033025876
54	0x3d2644bd	0.040592898
55	0x3b97136e	0.0046104705
56	0x3c32609c	0.010887291
57	0xbdccdec2	-0.10003425
58	0xbcd391a2	-0.02582628
59	0x3d3ff101	0.0468607
60	0x3da3f8ca	0.08006437
61	0x3c373bdf	0.011183708
62	0x3d475bed	0.04867165
63	0xbd0c0caf	-0.034191784
64	0xbdafe49c	-0.08588526
65	0x3e399f5d	0.18127199
66	0x3e8563d5	0.26052728
67	0x3da98648	0.08277565
68	0xbc78a1bc	-0.015175279
69	0xbce64002	-0.028106693
70	0x3cfcf7bc	0.030879848
71	0x3cdf0ff3	0.027229285
72	0xbba6b50d	-0.005087501
73	0xbe13d91b	-0.14438288
74	0x3d618d0c	0.055066153
75	0x3d7bb357	0.06145033
76	0x3d64420d	0.055727053
77	0xbe04456c	-0.12917107
78	0x3cbdd97d	0.023174996
79	0x3d5e61d5	0.05429252
80	0x3c24bff1	0.010055528
81	0x3c8a0c1f	0.016851483
82	0xbe238cfe	-0.15971753
83	0xbdb00be3	-0.08596017
84	0xbdaff27d	-0.08591173
85	0xbd9e1b84	-0.07720092
86	0xbc6b3c6b	-0.0143576665
87	0x3e09660b	0.13417833
88	0x3db21fc5	0.08697466
89	0xbc963dc4	-0.018339999
90	0xbd55b74c	-0.05217676
91	0xbdd009fd	-0.10158155
92	0x39f60f97	0.00046932392
93	0x3d9e8c6c	0.07741627
94	0x3d0cbb6a	0.03435842
95	0x3df765e7	0.12079983
96	0x3da15993	0.07878413
97	0xbcd1a032	-0.025589082
98	0xbcff48cd	-0.031162644
99	0xbc937bac	-0.018003307
100	0x3e0873f7	0.13325487
101	0x3e32776a	0.17428365
102	0x3d3b13f7	0.045673337
103	0xbd813688	-0.06309229
104	0x3cd75cdb	0.026289394
105	0xbe8a82be	-0.27052873
106	0x3ce68b6f	0.028142659
107	0xbba00a36	-0.0048840297
108	0x3de79f76	0.11309712
109	0xbe207e1c	-0.15673107
110	0x3d95c9f5	0.07313911
111	0xbd1a112d	-0.037614036
112	0xbd882e4d	-0.06649456
113	0xbc96304d	-0.018333578
114	0xbd2ccc5a	-0.042187072
115	0xbcde01e5	-0.027100513
116	0x3d986d8e	0.07442771
117	0xbce8a908	-0.028400913
118	0x3d446632	0.047949024
119	0x3cb74f0c	0.02237656
120	0x3d45eb7e	0.048320286
121	0x3e0f6812	0.14004543
122	0x3e400c2e	0.18754646
123	0x3e073972	0.13205507
124	0x3ca2526f	0.019814698
125	0xbd4014c9	-0.046894822
126	0xbd836c0e	-0.06417094
127	0xbc821ab6	-0.015881877
128	0xbdf4cd4c	-0.1195322
129	0xbd6633ca	-0.056201734
130	0x3d98adcd	0.07455025
131	0xbe49fab4	-0.19724542
132	0x3d1310e6	0.035904787
133	0x3caf0818	0.021366164
134	0xbda348f3	-0.07972898
135	0x3cffcb2f	0.031224815
136	0xbd2d6c87	-0.042339828
137	0x3c4e1540	0.012578309
138	0x3d461799	0.04836235
139	0xbe232619	-0.15932502
140	0xbe123d02	-0.14281085
141	0x3dde60d6	0.10858314
142	0xbd1f78f5	-0.038933713
143	0xbcaa4693	-0.020785606
144	0xbcbeadc1	-0.023276212
145	0xbd869e83	-0.065732025
146	0x3da10336	0.078619406
147	0xbe314561	-0.17311622
148	0x3bffbe23	0.0078046485
149	0x3d36dd39	0.044644568
150	0xbc7bea8d	-0.0153757455
151	0x3d74ef47	0.059798505
152	0xbcd1618a	-0.025559206
153	0x3db59f7d	0.088683106
154	0xbd7a9b00	-0.061182976
155	0xbdc6ddd3	-0.09710278
156	0xbd64e082	-0.05587817
157	0xbd931ec1	-0.071836
158	0x3e3ff786	0.18746766
159	0x3d510fe6	0.051040553
160	0xbd366aea	-0.044535555
161	0xbc9e26fa	-0.019305695
162	0xbcb8f312	-0.022576842
163	0xbe05c805	-0.13064583
164	0x3e255469	0.16145481
165	0x3d8e1eb0	0.06939447
166	0xbe4fd620	-0.20296526
167	0x3e3327a8	0.17495596
168	0xbd49aa3b	-0.04923461
169	0xbd5bb006	-0.053634666
170	0xbbf6bb51	-0.007529654
171	0xbd3ecfd4	-0.04658492
172	0xbcb8c357	-0.022554083
173	0xbd2d79a7	-0.042352345
174	0xbde48feb	-0.11160263
175	0xbd67d0bd	-0.056595553
176	0xbd8575d2	-0.06516613
177	0x3e0f92b4	0.14020807
178	0x3e4fce0a	0.20293441
179	0x3e12b34d	0.1432621
180	0x3e35f404	0.17768866
181	0x3d7d1291	0.061785284
182	0x3c9f09c0	0.019413829
183	0xbca07f66	-0.019591998
184	0xbc8b0918	-0.01697211
185	0x3d8fbec8	0.070188105
186	0xbd752bbb	-0.059856158
187	0xbe492309	-0.19642271
188	0xbdd88641	-0.10572482
189	0x3d2288e5	0.039681334
190	0x3d2fc2e9	0.04291049
191	0xbc84660e	-0.016161945
192	0x3dc70f76	0.09719746
193	0x3dbe6a77	0.0929765
194	0xbd3a89b3	-0.045541476
195	0xbdedde43	-0.11614659
196	0xbd9140bf	-0.070924275
197	0xbd22cb9a	-0.03974495
198	0x3d312660	0.043249488
199	0xbde33569	-0.110941716
200	0xbd816b90	-0.06319344
201	0x3e1041fe	0.14087674
202	0x3dc1ab72	0.09456529
203	0xbe3046ff	-0.17214583
204	0xbc6c89c1	-0.01443714
205	0xbcfd2fc8	-0.030906573
206	0x3d47b3bd	0.048755396
207	0xbda45778	-0.08024496
208	0xbda8dcc1	-0.082452305
209	0xbe008965	-0.12552412
210	0x3dc4c22d	0.096073486
211	0x3d12c88a	0.03583578
212	0xbe1d114a	-0.15338627
213	0xbd3619d6	-0.044458233
214	0x3dcd6b1e	0.100301966
215	0xbd626d95	-0.055280287
216	0xbcc51bfb	-0.024061194
217	0x3d21a58c	0.03946452
218	0xbdadd5b7	-0.084880285
219	0x3c5fba3e	0.013655243
220	0xbe9762b0	-0.2956748
221	0x3e035c81	0.12828256
222	0xbd102792	-0.035193987
223	0x3d09350e	0.033497863
224	0xbd805903	-0.06266978
225	0xbd2421d5	-0.040071327
226	0x3d05c63e	0.03265976
227	0xbddb6c3c	-0.107140034
228	0x3bb69994	0.005572507
229	0xbc812699	-0.015765475
230	0x3e21f16f	0.15814756
231	0x3e0d88ee	0.13821766
232	0xbd38c717	-0.045111742
233	0xbdb640b6	-0.088990614
234	0x3d2f0653	0.04273064
235	0x3dbbf411	0.09177411
236	0x3e0c6f15	0.1371425
237	0xbd518403	-0.051151287
238	0xbd68c899	-0.05683193
239	0x3d06665d	0.032812465
240	0xbd492f6b	-0.049117487
241	0x3cc12c1c	0.023580603
242	0xbe2bc928	-0.16775954
243	0xbdfb0605	-0.122570075
244	0x3c83c625	0.016085694
245	0xbc339851	-0.010961608
246	0x3d8f925d	0.070103385
247	0x3d7f8051	0.06237823
248	0xbe4bc2f9	-0.19898595
249	0xbe0099ed	-0.12558718
250	0x3cb29616	0.021800082
251	0xbca39157	-0.019966764
252	0xbd84bb0a	-0.06480987
253	0xbe1f6c02	-0.15568545
254	0xbded4cd0	-0.115869164
255	0x3d67565d	0.056478847

conv1.0.bias f4 [56]
0	0xbbe980ce	-0.0071259504
1	0xbcee5b78	-0.02909635
2	0xbbf5a766	-0.007496762
3	0xbd1844f2	-0.037175126
4	0x3b98077e	0.004639565
5	0xbc7c5b6e	-0.015402658
6	0xbb7b722d	-0.0038367615
7	0xbd430690	-0.04761368
8	0xbb56bd59	-0.0032766669
9	0x3c3607a6	0.011110222
10	0xbd8a1fbd	-0.06744335
11	0x3d6dba5b	0.05803905
12	0xbcc02157	-0.023453398
13	0xbd9edbb4	-0.07756749
14	0x3c07921e	0.008274583
15	0xbd9e42a1	-0.07727552
16	0x3d18e416	0.037326895
17	0xbd8e40cd	-0.069459535
18	0xbbc7ea44	-0.0061009247
19	0xbd328664	-0.043585196
20	0xbd228b24	-0.039683476
21	0x3d7a0d2d	0.06104772
22	0xbd605dc9	-0.05477694
23	0x3cfd167c	0.03089451
24	0xbd03c22d	-0.032167602
25	0xbc9f82ca	-0.019471545
26	0x3d068bda	0.032848217
27	0x3a46b425	0.0007579944
28	0xbc58f2c2	-0.013241472
29	0xbd4bede1	-0.049787406
30	0xbb89e1f3	-0.0042078434
31	0x3a5205bd	0.00080117193
32	0xbd212cf4	-0.03934951
33	0x3ce4ee33	0.027945613
34	0xbda75d90	-0.081721425
35	0xbd270223	-0.040773522
36	0x3d2cfcf1	0.04223341
37	0xbccedfc0	-0.025253177
38	0x3d36ad0d	0.044598628
39	0xbd6f62ff	-0.05844402
40	0xbd69ef45	-0.05711295
41	0x3ccecd73	0.02524445
42	0xbd298fa2	-0.041396745
43	0x3d3c3224	0.045946255
44	0xbd5caaa5	-0.053873677
45	0xbdc02b69	-0.0938328
46	0xbb45ce41	-0.0030182751
47	0x3cc621a4	0.024185963
48	0xbcc59cb3	-0.024122572
49	0x3ca854f1	0.020548316
50	0xbd8a075f	-0.06739687
51	0xbc761ab9	-0.01502102
52	0xbad243f6	-0.0016041982
53	0xbd300c65	-0.04298057
54	0x3d807184	0.062716514
55	0xbd9aae35	-0.075527586

conv2.0.weight f4 [56, 1, 1, 12]
0	0x3e7c4f7a	0.24639693
1	0x3e0f93bb	0.14021198
2	0xbe8c5175	-0.27405897
3	0xbd7dca0a	-0.061960258
4	0xbe9b189f	-0.30292222
5	0xbe091e15	-0.13390382
6	0xbe103f0f	-0.14086555
7	0x3e72600a	0.23669448
8	0x3e867109	0.26258114
9	0xbdee3e77	-0.11633008
10	0x3e6d0ef3	0.23150234
11	0xbdb47d82	-0.08813001
12	0xbd865f97	-0.06561201
13	0x3e2e6e6f	0.17034315
14	0xbe7a1e6c	-0.24425668
15	0x3e4a383e	0.19748017
16	0xbe1f5582	-0.15559962
17	0xbd0fedba	-0.035138823
18	0xbe01372c	-0.12618703
19	0xbe6ce2dc	-0.23133415
20	0xbd18504a	-0.037185945
21	0x3e7604ff	0.24025343
22	0x3da47903	0.08030894
23	0x3e2a31eb	0.16620605
24	0xbc0e3b51	-0.008681134
25	0x3e6d6f46	0.23186979
26	0x3e5c2b7b	0.21500961
27	0xbe887516	-0.2665183
28	0x3c5040d1	0.012710766
29	0x3e536204	0.20642859
30	0xbdf09e3e	-0.11748932
31	0x3d7d48e9	0.06183711
32	0xbd68526d	-0.056719232
33	0x3cf34ef0	0.029700726
34	0xbe562da9	-0.20915855
35	0x3e10fcf8	0.14159
36	0xbe84aa15	-0.25911012
37	0x3dec66c2	0.11543037
38	0x3e600233	0.21875839
39	0xbd8f2cf8	-0.06990999
40	0xbc6edfa6	-0.014579689
41	0x3e5cec07	0.21574412
42	0xbcbca483	-0.023027664
43	0xbe474413	-0.19459562
44	0xbe4d3350	-0.20039105
45	0xbded6378	-0.11591238
46	0xbe5d3e87	-0.21605884
47	0x3e2ebd62	0.17064431
48	0xbe2201e1	-0.15821029
49	0x3d85e920	0.06538606
50	0xbd6cd1a4	-0.057817116
51	0x3e22677c	0.15859789
52	0x3d7270b5	0.059189517
53	0x3e3b8d1b	0.18315546
54	0x3e420463	0.18946986
55	0xbe8fa495	-0.28055254
56	0x3e8e2073	0.27759132
57	0xbe8af8c2	-0.27142912
58	0xbe6705bb	-0.2256078
59	0x3d602259	0.054720256
60	0x3dae5ee0	0.0851419
61	0xbe3a0996	-0.18167719
62	0xbd057271	-0.032579843
63	0xbb020357	-0.0019838416
64	0x3d808538	0.062754095
65	0x3e080ad0	0.13285375
66	0x3db2c960	0.087298155
67	0x3da47b80	0.08031368
68	0xbd98d859	-0.0746314
69	0xbe374e9a	-0.17901078
70	0x3d94392d	0.07237468
71	0xbdac9c7f	-0.08428287
72	0xbe888897	-0.2666671
73	0x3e0fb6d2	0.14034584
74	0xbd84fb41	-0.064932354
75	0xbd31d938	-0.043420047
76	0xbc42f387	-0.011898882
77	0x3e699307	0.22809993
78	0xb7fbda03	-3.0023051e-05
79	0x3e90ddce	0.28294224
80	0x3dfa6bd6	0.12227599
81	0xbd1f2cf2	-0.038861223
82	0xbe592e55	-0.2120908
83	0xbcf504b7	-0.029909475
84	0xbe2e4692	-0.17019108
85	0x3e9e2265	0.30885616
86	0xbdfabea3	-0.12243392
87	0xbd9366c7	-0.071973376
88	0x3d61571e	0.055014722
89	0x3e752419	0.23939551
90	0xbe286d52	-0.16447952
91	0x3cc584d9	0.024111198
92	0xbe49d318	-0.19709432
93	0x3dfd3056	0.12362735
94	0xbe81c03f	-0.25341985
95	0xbdb43ccd	-0.08800659
96	0x3d02116a	0.03175489
97	0xbe87f06f	-0.26550624
98	0x3e4863ac	0.19569272
99	0x3e76d619	0.2410511
100	0x3cceb551	0.025232943
101	0xbea3f13c	-0.32019985
102	0x3cf48468	0.029848292
103	0x3deff9bc	0.11717555
104	0xbe7f9ba5	-0.24961717
105	0xbe512e6f	-0.2042787
106	0x3db8fd66	0.09032707
107	0x3e2aea3c	0.16690916
108	0x3e331ab1	0.1749065
109	0xbe737414	-0.23774749
110	0xbdd2245b	-0.102608405
111	0x3e24f4c3	0.16108994
112	0xbe87411a	-0.26416856
113	0x3e87b4db	0.2650517
114	0x3e2df131	0.16986538
115	0x3e831fbf	0.25610158
116	0x3cfe3824	0.03103263
117	0xbdaffd12	-0.08593191
118	0xbd85a04c	-0.06524715
119	0xbe14b644	-0.14522654
120	0x3e62305e	0.22088763
121	0x3e54a985	0.20767792
122	0xbe3c2f64	-0.18377453
123	0xbe5eacf7	-0.21745668
124	0xbe6b27ed	-0.22964449
125	0xbdc0f6ab	-0.09422048
126	0x3e8e4a5a	0.277911
127	0xbd1c5239	-0.03816435
128	0xbe13a206	-0.14417276
129	0x3d362e77	0.044477906
130	0x3e1a8581	0.1508999
131	0xbe15d0c5	-0.1463042
132	0x3dcebdc7	0.10094791
133	0xbd18a92c	-0.03727071
134	0x3df3b57a	0.11899848
135	0xbe3fd171	-0.1873224
136	0x3e2853ef	0.16438268
137	0xbdfaf11a	-0.12253018
138	0xbe1cafcb	-0.15301435
139	0x3e42b0a2	0.19012693
140	0x3d675f9d	0.05648767
141	0xbd125c3a	-0.035732485
142	0xbd169da4	-0.03677143
143	0xbe7c7163	-0.24652629
144	0x3df4bbbc	0.1194987
145	0x3e4537fa	0.19259635
146	0xbc05b222	-0.008160146
147	0x3d60dcb1	0.054897968
148	0x3da395ab	0.07987531
149	0xbe71d894	-0.23617774
150	0xbe1a908a	-0.150942
151	0xbe00109e	-0.12506339
152	0x3d219f21	0.039458398
153	0x3e9f3a9f	0.31099412
154	0xbe707859	-0.23483409
155	0xbdc9255f	-0.09821581
156	0xbd6dfc92	-0.058102198
157	0xbbfd2d8c	-0.007726377
158	0x3cfba718	0.030719325
159	0xbdf939a5	-0.12169198
160	0x3e3b7757	0.18307243
161	0x3ed0acf6	0.4075696
162	0xbeaae189	-0.33375195
163	0x3e27f60f	0.16402458
164	0xbdc78def	-0.097438686
165	0x3d9021a3	0.07037666
166	0x3e423968	0.18967211
167	0xbe62d40b	-0.221512
168	0x3e11372e	0.14181206
169	0x3db14ded	0.08657441
170	0x3da78038	0.08178753
171	0xbda6abd2	-0.08138241
172	0xbe2eb30c	-0.17060488
173	0x3bff10fb	0.0077840067
174	0x3e7d9cc1	0.24766828
175	0xbe1d117a	-0.15338698
176	0x3e0233d9	0.12715091
177	0xbe3b39fd	-0.1828384
178	0x3e18262e	0.14858314
179	0xbe8c5861	-0.27411178
180	0xbdc6dd70	-0.097102046
181	0xbe1e2a85	-0.15445907
182	0x3da2685d	0.07930062
183	0x3e0656ad	0.13119002
184	0x3dcce487	0.10004526
185	0xbec9cb34	-0.39412844
186	0xbe666326	-0.2249876
187	0x3d8b7e24	0.06811169
188	0x3e8e72fb	0.27822098
189	0xbd8ae34a	-0.06781633
190	0xbc8d6fb4	-0.017265178
191	0xbe26eccd	-0.1630127
192	0xbdaac466	-0.08338241
193	0x3e692dd7	0.22771393
194	0xbdb6610b	-0.08905228
195	0xbb864f47	-0.004098806
196	0xbe03aaaa	-0.12858072
197	0xbeec655d	-0.46171084
198	0xbd826c50	-0.06368315
199	0x3e0d6f1e	0.13811919
200	0x3df96562	0.1217754
201	0xbdc1ed6a	-0.09469111
202	0x3e5d40f4	0.21606809
203	0xbe6d5d66	-0.2318016
204	0xbe67fcb9	-0.22655
205	0xbe75824b	-0.23975484
206	0xbe44ba05	-0.19211586
207	0x3d9bd399	0.076087184
208	0x3ea82332	0.32839352
209	0xbeaa28c6	-0.33234233
210	0xbe70ed36	-0.23527989
211	0xbb15f426	-0.002288112
212	0x3e1f99fd	0.15586086
213	0xbdc792be	-0.09744786
214	0x3e06487e	0.13113591
215	0xbdefdee9	-0.117124386
216	0xbe1e38dd	-0.15451379
217	0xbe0d3caf	-0.1379268
218	0x3d1e3a20	0.03862965
219	0x3e0ea05d	0.13928361
220	0xbd9c55eb	-0.07633575
221	0xbe4139d9	-0.18869723
222	0x3e3ded8e	0.18547651
223	0x3e6068e6	0.21915016
224	0xbe0d9b25	-0.13828714
225	0xbcadf8ef	-0.021236865
226	0x3ea0a5cb	0.3137649
227	0xbe676825	-0.22598322
228	0x3cd076c4	0.025447257
229	0x3e1caaee	0.1529958
230	0xbe6ef6c0	-0.23336315
231	0x3e648dd1	0.22319724
232	0xbe1ae9fb	-0.15128319
233	0x3e16f01b	0.1474003
234	0xbe655976	-0.22397408
235	0xbdf2bd32	-0.118524924
236	0x3de18202	0.11011125
237	0x3d46c810	0.04853064
238	0x3e4c3528	0.19942153
239	0xbd432db0	-0.047650993
240	0x3e107d1a	0.14110222
241	0xbe935c34	-0.28781283
242	0x3cccf217	0.025017781
243	0x3e304301	0.1721306
244	0x3cedc21a	0.029023219
245	0xbe9ae733	-0.30254516
246	0x3e464735	0.19363101
247	0xbc5291da	-0.012852157
248	0x3e19a554	0.15004474
249	0xbe04ff55	-0.12988026
250	0x3e6ee837	0.2333077
251	0xbe147fe3	-0.1450191
252	0xbe413450	-0.18867612
253	0x3e16653c	0.14687055
254	0xbe1ca194	-0.15296012
255	0x3ba864e1	0.005138979

conv2.0.bias f4 [56]
0	0xbe1fc80a	-0.15603653
1	0x3d974ec1	0.07388068
2	0xbe64ac70	-0.22331405
3	0xbdf12476	-0.117745325
4	0x3e1d631f	0.15369843
5	0x3e7b7ef3	0.24560146
6	0x3d04e50f	0.03244501
7	0xbe22b0d8	-0.15887773
8	0x3e5a8979	0.21341504
9	0xbe861fcb	-0.2619613
10	0xbe0903fe	-0.13380429
11	0xbd9678b5	-0.07347242
12	0xbdc3b498	-0.0955593
13	0x3e09cb13	0.13456373
14	0xbcbc856a	-0.023012836
15	0x3d836249	0.06415231
16	0xbe15065a	-0.14553204
17	0xbe36d38d	-0.17854138
18	0x3dc8ffff	0.098144524
19	0xbd979821	-0.07402063
20	0xbe8e3702	-0.27776343
21	0xbc9ef16b	-0.019402226
22	0x3e400773	0.18752842
23	0xbe17fc4e	-0.1484234
24	0x3e6d4ea0	0.23174524
25	0x3da28643	0.07935765
26	0x3c554675	0.013017287
27	0xbd93ae4f	-0.07210981
28	0x3e5741bc	0.2102117
29	0x3b401ed0	0.002931524
30	0xbd1fd8a5	-0.039024968
31	0xbe957de9	-0.29197624
32	0x3e755d7f	0.23961447
33	0xbe4ceab6	-0.2001141
34	0x3e4df123	0.20111518
35	0xbdef5982	-0.11686994
36	0x3d08f6f8	0.033438653
37	0x3cfdc701	0.030978682
38	0x3e729c6f	0.23692487
39	0x3e434768	0.19070208
40	0x3e07950c	0.1324045
41	0xbe5a4e70	-0.21318984
42	0x3e9c846c	0.3056978
43	0xbe16be71	-0.14721085
44	0xbe18ae55	-0.14910252
45	0x3e6c60b3	0.23083763
46	0xbde77a39	-0.11302609
47	0x3e8f407e	0.2797889
48	0xbe847e01	-0.25877383
49	0x3cb4935c	0.022042923
50	0x3c4dd63d	0.012563285
51	0xbe80435e	-0.25051397
52	0xbd3dc5fd	-0.046331394
53	0xbddd8b4e	-0.10817586
54	0xbe63ab51	-0.22233321
55	0x3e5fe21f	0.21863602

conv2.1.weight f4 [56]
0	0x3f7e3b6d	0.99309427
1	0x3f73bb94	0.95208097
2	0x3f702211	0.9380198
3	0x3f635339	0.8879886
4	0x3f753fe0	0.9580059
5	0x3f7f0fb0	0.9963331
6	0x3f786083	0.97022265
7	0x3f6737a9	0.90319306
8	0x3f8239ef	1.017393
9	0x3f7c1260	0.9846554
10	0x3f7be232	0.9839202
11	0x3f75fb71	0.96086794
12	0x3f811e68	1.0087404
13	0x3f8f3dc1	1.1190721
14	0x3f833c46	1.0252769
15	0x3f810957	1.0080975
16	0x3f898324	1.0743146
17	0x3f6e29a6	0.930323
18	0x3f77bbe1	0.96771055
19	0x3f685466	0.9075378
20	0x3f73f366	0.9529327
21	0x3f8bae59	1.0912582
22	0x3f883f34	1.0644288
23	0x3f717a31	0.94327074
24	0x3f817543	1.011391
25	0x3f88f900	1.0700989
26	0x3f804934	1.002234
27	0x3f8b8b15	1.090182
28	0x3f8936d7	1.0719861
29	0x3f7dfda6	0.9921516
30	0x3f75fcf3	0.96089095
31	0x3f80d2b4	1.0064301
32	0x3f828413	1.0196556
33	0x3f7d3746	0.98912466
34	0x3f823e23	1.0175213
35	0x3f85c5dc	1.0451007
36	0x3f804d8f	1.0023669
37	0x3f824ef7	1.0180348
38	0x3f771b26	0.965258
39	0x3f734d6d	0.9504002
40	0x3f605d72	0.87642586
41	0x3f722d67	0.9460053
42	0x3f80943a	1.0045235
43	0x3f786548	0.9702954
44	0x3f79cff2	0.97582924
45	0x3f84dbe2	1.0379603
46	0x3f8aae37	1.0834416
47	0x3f74e3f2	0.95660317
48	0x3f7d3052	0.98901856
49	0x3f821431	1.0162412
50	0x3f800c9b	1.0003847
51	0x3f848993	1.0354484
52	0x3f77b4bf	0.9676017
53	0x3f77d6fb	0.9681241
54	0x3f6f4aa6	0.9347328
55	0x3f83a8b6	1.0285861

conv2.1.bias f4 [56]
0	0x3b90e7e8	0.0044221766
1	0x3c54152d	0.012944502
2	0x39e3d51c	0.00043455593
3	0xbcac620f	-0.021042852
4	0xbcb23833	-0.021755314
5	0xbca51ad5	-0.020154396
6	0x3b6ceac8	0.0036150683
7	0xbc33ab75	-0.0109661715
8	0xbaf0251c	-0.0018321606
9	0x3c6ce7a3	0.014459523
10	0xbce4c4f5	-0.027925948
11	0x3b0627c2	0.0020470475
12	0x3c174206	0.00923205
13	0xbc3f5cee	-0.011679871
14	0xbcabc917	-0.02096991
15	0x3cb243a6	0.021760773
16	0x3c9ef58b	0.019404193
17	0xb975fe75	-0.00023459813
18	0xbbefcf39	-0.007318404
19	0x3cee3e76	0.029082518
20	0x3b9d680e	0.004803664
21	0xbc6e3adf	-0.014540403
22	0xbcf0d3cc	-0.029397868
23	0x3bbf3e0b	0.0058362535
24	0xbbc89d57	-0.006122272
25	0x3d1453e9	0.036212835
26	0x3b897ba0	0.0041956455
27	0x3cd2327a	0.025658835
28	0xbad3aca7	-0.0016149477
29	0xbbcd7153	-0.006269613
30	0x39358851	0.00017312287
31	0xbbed09b2	-0.007233822
32	0xbc445fd1	-0.011985735
33	0x3c8fa4b7	0.017534597
34	0x3d6e6242	0.058199175
35	0x3c4d978a	0.012548337
36	0x3bdb9d52	0.0067021037
37	0x3c80a109	0.015701788
38	0xb91042f1	-0.00013757848
39	0x3c014a11	0.007891194
40	0x3c9d612d	0.019211376
41	0xbbed864c	-0.0072486755
42	0x3ca20e47	0.019782199
43	0x3bb3b23c	0.0054838937
44	0x3bb6829a	0.005569768
45	0xbbab2fa0	-0.005224183
46	0x3d372826	0.044716023
47	0x3b37f892	0.0028071743
48	0xbcd9f3d1	-0.026605519
49	0x3bd08c6c	0.006364396
50	0x3d925963	0.071459554
51	0xbb566465	-0.0032713648
52	0xbcbbd946	-0.022930752
53	0x3c9ad595	0.018900672
54	0x3c7036ae	0.014661474
55	0x3cb0728b	0.021538993

conv2.1.running_mean f4 [56]
0	0xbe20b8b6	-0.15695462
1	0x3d977609	0.0739556
2	0xbe673c67	-0.22581635
3	0xbde6f4ee	-0.112771854
4	0x3e1df41c	0.15425152
5	0x3e7bbbbd	0.24583335
6	0x3cfecd70	0.03110382
7	0xbe1e768c	-0.1547491
8	0x3e5c8685	0.2153569
9	0xbe870713	-0.26372585
10	0xbe077751	-0.1322911
11	0xbd91116c	-0.07083401
12	0xbdc1e432	-0.09467353
13	0x3e075e78	0.1321963
14	0xbcb7fa27	-0.02245815
15	0x3d8dfa1a	0.06932469
16	0xbe0f9fde	-0.14025828
17	0xbe2e86e2	-0.17043641
18	0x3dc9752f	0.09836804
19	0xbd9aff70	-0.07568252
20	0xbe8ec827	-0.2788708
21	0xbcbd962a	-0.023142893
22	0x3e3eacf8	0.1862067
23	0xbe0e28a0	-0.13882685
24	0x3e6a6f39	0.2289399
25	0x3da9e3ab	0.08295377
26	0x3c98c925	0.0186506
27	0xbd8a21d9	-0.06744737
28	0x3e54b30b	0.20771424
29	0x3b7a734c	0.0038215695
30	0xbd27ee26	-0.0409986
31	0xbe95a0a6	-0.29224128
32	0x3e75e3e8	0.2401272
33	0xbe4b6d4a	-0.19865909
34	0x3e5010db	0.2031893
35	0xbde97ea3	-0.11401107
36	0x3d0a7de2	0.033811457
37	0x3cf15df9	0.029463755
38	0x3e6fe3d5	0.23426755
39	0x3e3fa246	0.18714246
40	0x3e03aada	0.12858143
41	0xbe57d07b	-0.21075623
42	0x3e9c4758	0.3052318
43	0xbe148187	-0.14502536
44	0xbe19d17a	-0.15021315
45	0x3e6d50aa	0.23175302
46	0xbde9e44e	-0.11420499
47	0x3e8b9030	0.27258444
48	0xbe84e0ed	-0.25952855
49	0x3cb7ba89	0.022427814
50	0x3c33f098	0.010982655
51	0xbe80fb90	-0.25191927
52	0xbd40339e	-0.046924226
53	0xbdc53c19	-0.09630603
54	0xbe64b655	-0.22335179
55	0x3e61e23c	0.22058958

conv2.1.running_var f4 [56]
0	0x3ecc43f4	0.39895594
1	0x3e52b144	0.20575434
2	0x3dec6c19	0.115440555
3	0x3e9de6e6	0.30840224
4	0x3e64909e	0.22320792
5	0x3dab3877	0.08360379
6	0x3e82e3bd	0.25564376
7	0x3e25a806	0.16177377
8	0x3e47750e	0.19478247
9	0x3e80dcdc	0.25168502
10	0x3e651210	0.22370172
11	0x3d9901e2	0.07471062
12	0x3e3efb66	0.18650588
13	0x3df7bcc6	0.120965526
14	0x3da4c11a	0.08044644
15	0x3e6d2049	0.23156847
16	0x3e9779b3	0.29585037
17	0x3ee393b8	0.44448638
18	0x3e038cac	0.12846631
19	0x3d98ca24	0.0746043
20	0x3d7c8a9f	0.061655637
21	0x3e4b034e	0.1982548
22	0x3d62fb24	0.055415288
23	0x3f208f1e	0.6271838
24	0x3e995258	0.29945636
25	0x3e0d1d22	0.13780645
26	0x3ea54c97	0.32284996
27	0x3e9c0221	0.30470374
28	0x3e01be15	0.12670167
29	0x3e50311b	0.20331232
30	0x3e48a6a2	0.19594815
31	0x3d531c29	0.051540527
32	0x3cbae791	0.022815498
33	0x3cfbcc94	0.030737199
34	0x3e36bd84	0.17845732
35	0x3df21d00	0.118219376
36	0x3deef813	0.1166841
37	0x3df3ba66	0.11900787
38	0x3d96d2b8	0.0736441
39	0x3e1b9602	0.15193942
40	0x3e6add50	0.22935987
41	0x3e4bd1bd	0.19904228
42	0x3e409550	0.18806958
43	0x3dfe00b6	0.12402479
44	0x3d4c7779	0.049918626
45	0x3da6c787	0.081435256
46	0x3d750d8d	0.059827376
47	0x3f0156b5	0.5052293
48	0x3d330be3	0.043712508
49	0x3d2a79b0	0.041619956
50	0x3ddb842a	0.10718568
51	0x3de9f3fa	0.11423488
52	0x3e4c54f9	0.1995429
53	0x3f865592	1.0494864
54	0x3e784a59	0.24247111
55	0x3e756092	0.2396262

conv3.0.weight f4 [56, 56, 1, 12]
0	0x3c7b8375	0.015351166
1	0xbc127f4b	-0.008941482
2	0x3a7c4e66	0.00096247194
3	0xbca46f42	-0.020072583
4	0xbd48cc3c	-0.049022898
5	0xbcce514a	-0.025185246
6	0xbc6f6ca0	-0.014613301
7	0x3c81d9a4	0.01585085
8	0x3d0418c1	0.03225017
9	0x3c2a4014	0.010391254
10	0x3c3d8d9c	0.011569407
11	0xbb98103e	-0.004640608
12	0xbcdfe076	-0.027328711
13	0xbce03ed5	-0.02737371
14	0xbcac748d	-0.02105167
15	0x3ba3ef4c	0.0050028916
16	0xbb862642	-0.004093916
17	0xbd31dce7	-0.04342356
18	0xbd25a2e8	-0.040438563
19	0x3d1ef827	0.038810875
20	0x3c252bb0	0.010081217
21	0x3cbf0681	0.023318531
22	0x3c9153dd	0.017740184
23	0x3d0cc007	0.03436282
24	0xbc9608a2	-0.018314663
25	0xbcad144a	-0.021127839
26	0x3d18889b	0.037239652
27	0xbb1f48e6	-0.0024304925
28	0xbae34f8b	-0.0017342431
29	0x3ca749a8	0.020420864
30	0xbc87d1bf	-0.016579507
31	0xbcd7a303	-0.026322847
32	0xbcd01243	-0.025399333
33	0x3c668e17	0.014071963
34	0xba9bb0b4	-0.0011878223
35	0x3c71e5fb	0.014764304
36	0xbd3e6f83	-0.046493065
37	0xbcf8bb67	-0.030362798
38	0xbcd1326a	-0.025536735
39	0xbc8f378a	-0.017482538
40	0x3cd6bf6a	0.02621432
41	0x3d41bd0e	0.047299437
42	0xbcfe24b9	-0.03102337
43	0x3c4b2ca0	0.012400776
44	0xbafdd6a3	-0.0019366335
45	0xbc578f91	-0.0131567875
46	0x3b18e77c	0.0023331335
47	0x3c877dd6	0.016539495
48	0xbd242675	-0.040075738
49	0xbc28d71a	-0.01030519
50	0x3cd9237a	0.026506174
51	0xbb9e4f65	-0.004831242
52	0x3d46d335	0.048541266
53	0x3cd227c2	0.025653724
54	0x3c74aa77	0.01493322
55	0xbbc869e4	-0.006116139
56	0xbd640a9e	-0.055674188
57	0xbd0b19b5	-0.033960063
58	0xbceeb0fd	-0.029137129
59	0x3bd271d4	0.006422261
60	0xbd24068a	-0.0400453
61	0xbd750c0f	-0.059825953
62	0xbb9c2fe4	-0.004766451
63	0xbb97c8df	-0.0046321
64	0x3bda3a50	0.0066597834
65	0x3d8c25a3	0.06843116
66	0x3d418f24	0.04725565
67	0xba93d0ee	-0.0011277476
68	0xbc7020cf	-0.01465626
69	0xbd156d6e	-0.036481313
70	0x3cd0770c	0.025447391
71	0x3ce3bb78	0.027799353
72	0xbc0d2309	-0.00861431
73	0x3d320db3	0.043470096
74	0x3cc2d835	0.023784736
75	0xbba719c6	-0.005099508
76	0x3d144be6	0.036205195
77	0x3d36b02e	0.04460161
78	0xbce1047c	-0.027467959
79	0xbd54ceea	-0.05195514
80	0xbc34f95d	-0.011045781
81	0x3d4f4e1d	0.050611604
82	0xbccd7e51	-0.025084646
83	0x3cc2ef31	0.023795696
84	0xbd261f97	-0.04055747
85	0x3d2a55fd	0.04158591
86	0xbcfb552e	-0.030680265
87	0x3ae6d6a1	0.0017611572
88	0x3cfd1f62	0.030898754
89	0x3d3885b4	0.045049384
90	0xbb4e23a2	-0.0031454344
91	0xbc117a4b	-0.008879255
92	0xbd375431	-0.044758026
93	0x3c29ea66	0.010370826
94	0xbcb48689	-0.022036808
95	0xbcd1d530	-0.025614351
96	0x3ceb2346	0.028703343
97	0xbc97381b	-0.01845937
98	0xbd3bc175	-0.045838792
99	0xbc2986c6	-0.010347074
100	0xbcfc6e85	-0.030814419
101	0xbde66156	-0.11249034
102	0x3b354392	0.0027658683
103	0x3d0ac2f1	0.033877317
104	0xbc258e94	-0.010104794
105	0xbd10deb1	-0.035368625
106	0x3b005399	0.0019581078
107	0x3cbe2b1e	0.02321392
108	0x3cf33618	0.02968888
109	0xbd223b05	-0.039607067
110	0x3cfcce8f	0.030860214
111	0x3d36abb6	0.04459735
112	0x3cd666b4	0.02617202
113	0x3d1d5c01	0.03841782
114	0x3ba24562	0.0049521187
115	0xbb10b511	-0.002208058
116	0x3cff1987	0.031140102
117	0x3bd4c5f5	0.006493325
118	0x3d22a892	0.039711542
119	0xbc8095bb	-0.015696397
120	0x3b20ff98	0.0024566408
121	0x3bbb0f10	0.0057085827
122	0xbced2054	-0.02894608
123	0x3d2611d4	0.040544346
124	0x3d33af79	0.043868516
125	0xbd5d2bad	-0.05399673
126	0xbcd60e9d	-0.026130015
127	0x3c02e2e6	0.007988667
128	0x3cc240a4	0.023712464
129	0xbd106710	-0.035254538
130	0xbcfce3f2	-0.030870412
131	0x3cfe0f4e	0.031013157
132	0x3bfe8973	0.00776785
133	0x3c452622	0.012033017
134	0xbc26e455	-0.010186275
135	0x3d3e65cb	0.046483796
136	0x3c8852f6	0.016641121
137	0xbd324f7e	-0.04353284
138	0xbbb51417	-0.0055260765
139	0xbd50ea51	-0.05100471
140	0x3c19bd3b	0.009383495
141	0xbc874c0a	-0.01651575
142	0x3cbb42ff	0.022859095
143	0xbd5a4e58	-0.05329737
144	0x3c8b1701	0.016978743
145	0x3cba67f4	0.022754647
146	0xbb9baefa	-0.0047510834
147	0xbcd5451c	-0.02603393
148	0xbd4be888	-0.049782306
149	0xbda8e73e	-0.08247231
150	0xbcea77ef	-0.028621642
151	0x3ae7dc6d	0.0017689593
152	0x3d261ce8	0.04055491
153	0x3d3e67f1	0.046485845
154	0x3c8cb716	0.017177146
155	0xbd4cf098	-0.050034136
156	0x3c152058	0.00910195
157	0x3d23befb	0.039977055
158	0xbc1d878c	-0.009614836
159	0x3b0c8c45	0.0021445912
160	0x3bde30e0	0.0067807287
161	0x3e58d9ea	0.21176878
162	0x3da8ca4a	0.082417086
163	0xbc6db448	-0.014508314
164	0x3ce9ce7e	0.028540846
165	0xbc7ae28a	-0.0153128
166	0xbc9a7bf0	-0.018857926
167	0x3cd1d1f5	0.02561281
168	0x3d0caf86	0.03434708
169	0xbd51a4c5	-0.051182527
170	0x3b4ef829	0.003158102
171	0x3c8762d9	0.016526626
172	0x3d7fdf59	0.06246886
173	0x3ab34378	0.0013676723
174	0xbda6b3e3	-0.081397794
175	0xbc29aa12	-0.010355489
176	0x3c6ee835	0.01458173
177	0xbcfdea93	-0.030995643
178	0x3c6b324e	0.014355255
179	0xbc688b46	-0.014193362
180	0x3ce078fd	0.027401442
181	0x3d06d93e	0.032922022
182	0x3c627d69	0.013823845
183	0x3c35d241	0.011097492
184	0xbd8a4dd1	-0.067531236
185	0xbd6bbcdc	-0.057553157
186	0xbd18c669	-0.037298594
187	0xbca21802	-0.019786838
188	0xb8541ce0	-5.057163e-05
189	0x3cc367e1	0.023853244
190	0xba29bfe2	-0.0006475431
191	0xbbf3a567	-0.007435489
192	0xbcc90aac	-0.024541222
193	0x3c382a6c	0.011240583
194	0x39894285	0.00026180237
195	0xbc9d579a	-0.01920681
196	0xbcf38a02	-0.029728893
197	0xbe5b64c7	-0.21425162
198	0xbddd8e1b	-0.1081812
199	0xbc811012	-0.015754733
200	0x3ceb49f2	0.028721783
201	0x3d2fa6b0	0.042883575
202	0xbc7e8e29	-0.015536823
203	0xbd340983	-0.043954384
204	0x3c52a1ed	0.012855989
205	0xbcdf8b8e	-0.027288225
206	0x3cc01873	0.023449158
207	0x3cd045d4	0.025423922
208	0xbca65144	-0.020302422
209	0x3bac3974	0.0052558724
210	0x3d2ebc38	0.04265997
211	0x3ca1620e	0.019700076
212	0x3c61d4be	0.013783632
213	0xbd15f6cc	-0.036612317
214	0x3bd863f9	0.0066037145
215	0xbc6c6acc	-0.014429759
216	0x3d12900e	0.035781913
217	0xbc2ef8e4	-0.010679457
218	0xbcd80cd9	-0.026373314
219	0x3cbb08f7	0.022831423
220	0x3d23e7dd	0.040016044
221	0xbd1db40c	-0.038501784
222	0xbc7528a7	-0.014963306
223	0x3b346634	0.0027526738
224	0x3c148b00	0.009066343
225	0x3ca35906	0.01993991
226	0xbc5f2f04	-0.013622049
227	0x3bec1dc0	0.007205695
228	0x3d033e32	0.032041736
229	0xbc9df175	-0.019280175
230	0x3cd95d22	0.026533667
231	0xbcbe7f94	-0.023254193
232	0xbccc924d	-0.024972105
233	0xb9ffdbd1	-0.00048801166
234	0xbc9d428e	-0.019196775
235	0xbc83735b	-0.016046217
236	0xba4f977e	-0.00079189974
237	0x3d869238	0.06570858
238	0x3b7b3b49	0.0038334897
239	0xbcb9bc45	-0.022672782
240	0x3c8c4f43	0.017127639
241	0xbcd182e6	-0.025575113
242	0x3c311016	0.010807058
243	0x3a26011d	0.00063325634
244	0x3d25c935	0.04047509
245	0xbc89e8ab	-0.016834578
246	0x3bd7a38d	0.006580776
247	0x3b0fc249	0.0021935871
248	0xbd0a2dc8	-0.033735067
249	0x3b928d81	0.004472435
250	0xbc42ab4b	-0.01188166
251	0x3d14e41d	0.03635036
252	0x3bd05994	0.006358335
253	0x3d18eba2	0.037334092
254	0x3ac23279	0.0014816067
255	0xba112c71	-0.00055379333

conv3.0.bias f4 [56]
0	0x3c3a6536	0.01137667
1	0xbcf3c357	-0.029756231
2	0xbbc0ae85	-0.0058801793
3	0x3c8da622	0.017291132
4	0x3ce3ed77	0.027823193
5	0xbba7af8b	-0.005117362
6	0xbb46fd32	-0.0030363319
7	0xbc1c5e3c	-0.009543952
8	0xbac5725f	-0.0015063992
9	0xbc95cc6a	-0.018285949
10	0x3c8cec18	0.017202422
11	0xbd0d1b67	-0.03444996
12	0x3d0ba809	0.034095798
13	0xbd02d45f	-0.031940814
14	0xbc5dba4e	-0.013533188
15	0x3c81d11e	0.015846785
16	0x3cf3bc34	0.029752828
17	0x3bfc4479	0.0076985923
18	0xbd2954da	-0.041340686
19	0x3c9a244d	0.018816138
20	0xbcb45da8	-0.022017315
21	0xbca97f7e	-0.020690676
22	0x3cc91b8c	0.024549268
23	0xbbbd991e	-0.0057860753
24	0x3b00e062	0.0019664993
25	0x3b8b144b	0.0042443625
26	0x3b8ec2d9	0.0043567237
27	0x3baafcbb	0.005218116
28	0xbcdc8f9c	-0.026923947
29	0x3d050a15	0.032480318
30	0xbb9b6002	-0.0047416696
31	0xbcb3878a	-0.021915216
32	0x3c9a5cea	0.018843133
33	0xbcb40a37	-0.021977527
34	0x3b62fd2a	0.003463576
35	0xbd0506a2	-0.03247703
36	0xbd181b1b	-0.037135225
37	0x3ca97477	0.020685418
38	0xbcd2e854	-0.025745548
39	0xbce8ca97	-0.028416915
40	0x3cf500c2	0.029907588
41	0x3d00cac2	0.031443365
42	0x3cf2642c	0.029588781
43	0x3cf7be9a	0.030242253
44	0x3cf4b113	0.029869592
45	0x3cf504d1	0.029909523
46	0x3bf51f92	0.00748057
47	0xbc6ebf62	-0.014571996
48	0xbbddd8ca	-0.006770228
49	0xbd22359a	-0.0396019
50	0xbcae26b7	-0.021258695
51	0xbc8bf9b8	-0.017086849
52	0xbc9cdc57	-0.019148035
53	0x3c704a70	0.014666185
54	0x3c97a992	0.018513475
55	0xba85c860	-0.0010206811

conv3.1.weight f4 [56]
0	0x3f6d545c	0.9270685
1	0x3f7af360	0.9802761
2	0x3f83f019	1.0307647
3	0x3f6b9f8a	0.9204031
4	0x3f89a84d	1.0754486
5	0x3f88cba4	1.0687146
6	0x3f88e75e	1.0695608
7	0x3f7a8445	0.9785808
8	0x3f9199c2	1.1375048
9	0x3f665e8a	0.89988005
10	0x3f67b0bd	0.90504056
11	0x3f89721c	1.0737948
12	0x3f8b2aeb	1.0872473
13	0x3f837686	1.0270545
14	0x3f70cdde	0.9406413
15	0x3f830152	1.0234778
16	0x3f6fd8d2	0.93690217
17	0x3f78eea2	0.97239125
18	0x3f6a0e47	0.91428035
19	0x3f794aee	0.9737996
20	0x3f7cf34b	0.98808736
21	0x3f84a45c	1.0362659
22	0x3f8d89ea	1.1057713
23	0x3f656d7e	0.89620197
24	0x3f6df3d2	0.92950165
25	0x3f9b878b	1.215074
26	0x3f6335d4	0.8875401
27	0x3f8a111c	1.0786471
28	0x3f7b9c82	0.98285687
29	0x3f876c8c	1.0580001
30	0x3f75f841	0.9608193
31	0x3f8efe53	1.1171364
32	0x3f785307	0.9700169
33	0x3f8092ba	1.0044777
34	0x3f70e6ea	0.94102347
35	0x3f6c7d86	0.92379034
36	0x3f72db5d	0.9486597
37	0x3f7b4896	0.9815763
38	0x3f7f84f7	0.99812263
39	0x3f6c9671	0.92417055
40	0x3f6ade83	0.91745776
41	0x3f7a4f49	0.9777723
42	0x3f74aa00	0.955719
43	0x3f70f005	0.9411624
44	0x3f750daa	0.95723975
45	0x3f8a2053	1.0791115
46	0x3f8c5c89	1.096574
47	0x3f774681	0.96591955
48	0x3f6bf96d	0.9217747
49	0x3f6d6683	0.92734545
50	0x3f7b8816	0.98254526
51	0x3f67380b	0.9031989
52	0x3f85f108	1.0464182
53	0x3f71bbbb	0.9442708
54	0x3f6e8965	0.931784
55	0x3f69e0f8	0.913589

conv3.1.bias f4 [56]
0	0xbba34d43	-0.0049835755
1	0xbb10cff3	-0.0022096604
2	0xbb07cb77	-0.002072064
3	0x3b7870c8	0.003790902
4	0xbaa77bb0	-0.0012777951
5	0x3bb22c2f	0.005437396
6	0x3ba3b12c	0.004995486
7	0xbb604241	-0.0034219178
8	0xbc9e36e2	-0.01931328
9	0x3bea01b5	0.007141317
10	0x3bbf6ce3	0.0058418377
11	0x3c1dea5c	0.009638395
12	0x3c5a319d	0.013317493
13	0x3b346f68	0.0027532224
14	0x3b6b4311	0.003589813
15	0xbb2b2615	-0.0026115228
16	0x3b7ac060	0.0038261637
17	0x39ee8ef7	0.00045501415
18	0xbb099e25	-0.0020998803
19	0xb9c31b79	-0.00037213767
20	0xbb869e3b	-0.004108218
21	0x3aa053e9	0.0012232038
22	0xbc144c4e	-0.009051396
23	0xbbcb1251	-0.006197252
24	0xbc537b5f	-0.012907832
25	0x38863b7a	6.400696e-05
26	0x3a917a23	0.0011099022
27	0xbbf63a70	-0.0075142905
28	0xbbdaf45a	-0.006681961
29	0x3a8a332f	0.0010543818
30	0x392fa45f	0.00016750534
31	0xbb9b0f45	-0.004732045
32	0xbba181d9	-0.004928809
33	0xbb22221f	-0.0024739576
34	0x3b4ae916	0.0030961684
35	0x3ba05595	0.0048930147
36	0xbb41d738	-0.0029577743
37	0xbb67fdb8	-0.003539903
38	0xbabe0745	-0.0014498016
39	0x3b7923b9	0.0038015677
40	0xbc12b50c	-0.008954298
41	0xbc2e883b	-0.010652597
42	0xbbb01e37	-0.0053746956
43	0xbbc508e0	-0.006013021
44	0x3b56de5a	0.003278634
45	0xba8ef64c	-0.0010907142
46	0x3a83efb1	0.001006594
47	0x3bfd3839	0.0077276495
48	0x3bba7f29	0.005691428
49	0xbb10b22a	-0.002207885
50	0xbbae26a1	-0.0053146635
51	0x39b1b57d	0.0003389529
52	0x39e1c2da	0.0004306052
53	0x3aa57790	0.0012624133
54	0x3bf763fa	0.00754976
55	0x3ade0dba	0.0016941347

conv3.1.running_mean f4 [56]
0	0xbcd9ba81	-0.02657819
1	0xbdb9d789	-0.09074313
2	0xbdcbf05b	-0.099579535
3	0x3db687f4	0.0891265
4	0x3d3faede	0.046797626
5	0xbd137e9a	-0.03600941
6	0xbc100a7a	-0.00879156
7	0xbdc9d83e	-0.09855698
8	0xbc30d714	-0.010793466
9	0x3bce8b99	0.0063032624
10	0x3ddc4568	0.10755426
11	0xbd909608	-0.07059866
12	0x3d5b66b2	0.053564735
13	0xbdf6cf22	-0.12051226
14	0x3d2ebc27	0.042659905
15	0xbcda2573	-0.026629185
16	0x3d77ca9a	0.06049595
17	0xbceffe08	-0.029295936
18	0xbdc340e5	-0.09533862
19	0xbcbcd4b6	-0.023050647
20	0xbd2b4814	-0.041816786
21	0xbc1cae88	-0.009563096
22	0x3c6aa97a	0.014322633
23	0x3d8d8b0f	0.06911289
24	0xbdac948d	-0.08426771
25	0x3c0c9d64	0.008582447
26	0xbd77751f	-0.06041443
27	0x3cb3d526	0.021952223
28	0xbd143bd8	-0.036189884
29	0x3d838a7a	0.06422897
30	0xbd666082	-0.05624438
31	0xbd32b72e	-0.043631725
32	0xbd8ebb3e	-0.06969307
33	0xbd741dfa	-0.0595989
34	0x3d166ab2	0.036722846
35	0xbdc2b2be	-0.095067486
36	0xbdfdca0e	-0.123920545
37	0x3d79bbb7	0.060970034
38	0x3c7a122f	0.015263124
39	0xbddaa9f7	-0.106769495
40	0x3e0aa5d7	0.13539825
41	0xbd74697b	-0.059670907
42	0xbd099b88	-0.03359559
43	0x3dcd1ac7	0.10014873
44	0x3d98fdd8	0.07470292
45	0x3c4a1596	0.012334248
46	0x3d8c7269	0.068577595
47	0x3dac3b4d	0.08409748
48	0x3d8c51cb	0.06851538
49	0x3cc9b0f3	0.024620509
50	0x3c9a96b5	0.01887069
51	0xbdd572bf	-0.10422277
52	0xbd25348b	-0.040333312
53	0x3da4ebdd	0.080528
54	0x3da7a0ce	0.08184968
55	0x3dd97315	0.10617653

conv3.1.running_var f4 [56]
0	0x41c92452	25.142735
1	0x41a0b27a	20.087147
2	0x41c3395d	24.40301
3	0x41daf609	27.370134
4	0x4135fa32	11.373583
5	0x417900fa	15.562738
6	0x41986af5	19.052225
7	0x41f136e0	30.151794
8	0x4174b901	15.295167
9	0x41959985	18.69996
10	0x4206dcbd	33.715565
11	0x41809bcc	16.076073
12	0x4185539e	16.665829
13	0x41609b6c	14.037945
14	0x41d6e260	26.860535
15	0x41b6a474	22.8303
16	0x420205b9	32.50559
17	0x4187164d	16.88589
18	0x41c1cfaf	24.226408
19	0x41c0b2f9	24.087389
20	0x41cc7368	25.55635
21	0x41e60d97	28.756636
22	0x4194916f	18.571012
23	0x41e5e88a	28.738544
24	0x41ff119d	31.8836
25	0x418ed21a	17.852589
26	0x42099e65	34.404682
27	0x41859b6a	16.700886
28	0x41bd02c0	23.626343
29	0x41f68fe9	30.820269
30	0x41d57096	26.679974
31	0x40ceb0a7	6.459064
32	0x41f37941	30.434206
33	0x418697b5	16.824076
34	0x41fa379f	31.277159
35	0x41eb9694	29.448524
36	0x4202985f	32.6488
37	0x41cff13e	25.992794
38	0x41d5632e	26.673428
39	0x420bf3fc	34.988266
40	0x4218f07d	38.23485
41	0x418444c3	16.533575
42	0x41a39605	20.448252
43	0x41b529f7	22.64549
44	0x41fc7c9f	31.56085
45	0x41aa2247	21.266737
46	0x417757b6	15.458914
47	0x420e7c2d	35.621265
48	0x41da212e	27.266201
49	0x41e38654	28.44059
50	0x4190f355	18.118814
51	0x421dbc5a	39.433937
52	0x419789a8	18.942215
53	0x42205bf7	40.08981
54	0x41e0e804	28.113289
55	0x4224f137	41.23556

conv4.0.weight f4 [56, 56, 56, 1]
0	0x3d14d2ce	0.03633385
1	0xbcf153bd	-0.029458875
2	0x3c063c05	0.008193021
3	0xbd0160dc	-0.031586513
4	0xbc6bd070	-0.014392957
5	0xbce2b90d	-0.02767613
6	0x3d400198	0.04687652
7	0xbd257afe	-0.040400498
8	0xbca6757e	-0.020319697
9	0xbb795cc6	-0.0038049682
10	0x3c80e368	0.015733436
11	0xbcdb1c7a	-0.026746977
12	0x3d01a29a	0.03164921
13	0x3d103ef4	0.035216287
14	0xbcb58a86	-0.02216078
15	0x3cad99f7	0.02119158
16	0xbd02f900	-0.031975746
17	0x3d702d0d	0.058636714
18	0x3c4c7417	0.01247885
19	0x3d178439	0.03699133
20	0xbd105437	-0.035236564
21	0x3bd6c4cf	0.006554223
22	0xbc9b7246	-0.018975388
23	0xbb225a7b	-0.002477317
24	0x3a532000	0.00080537796
25	0xbcc9a3bf	-0.024614213
26	0xbd11193c	-0.035424456
27	0xbd242d72	-0.040082403
28	0x3c5c7ecc	0.013457965
29	0xbcce23d7	-0.025163574
30	0x3ca06f8f	0.019584445
31	0xbc9f2677	-0.019427521
32	0x3cf5140e	0.02991679
33	0x3c814b0f	0.015782861
34	0x3d332662	0.043737777
35	0x3acc53c9	0.0015588935
36	0xbac9ba8f	-0.0015390682
37	0x3b0bf358	0.002135476
38	0x3d34e950	0.044167817
39	0xbb8059b8	-0.0039169453
40	0xbc9d79e8	-0.019223168
41	0xbca62010	-0.02027896
42	0xbc32be11	-0.010909573
43	0x3b37b44f	0.0028031056
44	0xbc481f56	-0.012214502
45	0x3c3a8371	0.011383877
46	0xbc44e7a4	-0.012018118
47	0x3b395ccf	0.0028284078
48	0x3ca0b30a	0.019616622
49	0xbd000067	-0.031250384
50	0xbb88748e	-0.004164285
51	0x3cd5e0b4	0.026108123
52	0xbbfab616	-0.007651101
53	0xbc58a879	-0.013223761
54	0x3d24da86	0.040247463
55	0xbce2855e	-0.027651485
56	0xbc7fb8ea	-0.015608052
57	0xbd4f755a	-0.050649025
58	0xbae23d1a	-0.0017260641
59	0xbce223a8	-0.027604893
60	0x3cac2eb1	0.021018358
61	0x3d0a2eb8	0.03373596
62	0x3d783a88	0.060602695
63	0xbc885a36	-0.016644578
64	0xbbd6abbb	-0.0065512336
65	0x3d18ffa0	0.037353158
66	0x3d2e1ea4	0.04250969
67	0xbbd6a010	-0.0065498427
68	0xbd3a443b	-0.045475226
69	0xbd3d54c0	-0.046223402
70	0xbd80b509	-0.0628453
71	0x3d272e15	0.04081543
72	0xbd7819d8	-0.06057152
73	0xbc9c41ee	-0.019074406
74	0xbd42c95e	-0.04755532
75	0x3d004708	0.03131774
76	0x3d6e0d8c	0.058118388
77	0x3c90785d	0.017635519
78	0x3c296329	0.010338583
79	0xbc6bb3e2	-0.014386149
80	0x3ce0516a	0.027382571
81	0x3d807bfe	0.0627365
82	0x3d22a1ad	0.039704967
83	0x3ba47498	0.005018782
84	0x3c356142	0.011070551
85	0xbd68e91a	-0.056862928
86	0xbd10377a	-0.035209157
87	0xbd079a8f	-0.033106383
88	0xbd56fc71	-0.05248684
89	0xbc8dcfe6	-0.017311048
90	0x3cd83686	0.026393186
91	0x3c3de68c	0.011590611
92	0xba4b9edb	-0.0007767507
93	0xbce82b07	-0.02834083
94	0xbb4b957d	-0.0031064444
95	0x3a8c4af2	0.0010703488
96	0x3cc307f1	0.023807498
97	0x3a8fe14a	0.0010977176
98	0xbd130eeb	-0.0359029
99	0x3c93f131	0.018059345
100	0x3c1fb9d0	0.009748891
101	0x3d7014e0	0.058613658
102	0x3c5a0e48	0.013309069
103	0x3cade2f2	0.02122638
104	0x3d1edeee	0.03878682
105	0xbd32035d	-0.04346024
106	0xbc115db7	-0.008872441
107	0x3c165cf8	0.009177439
108	0xbc7b9191	-0.01535453
109	0x3b8a44f9	0.004219648
110	0x3ceae5bc	0.028673999
111	0x3c1bf86e	0.0095196795
112	0xbb790a10	-0.0038000382
113	0xbd87ee89	-0.06637294
114	0x3bf90fd7	0.007600765
115	0xbc45102c	-0.012027781
116	0xbc8431fd	-0.016137118
117	0x3ca14432	0.019685838
118	0x3cafb916	0.02145056
119	0xbd4d8b5b	-0.050181728
120	0x3bd67d23	0.006545679
121	0x3b0a2a59	0.002108237
122	0x3d59937f	0.05311918
123	0x3b55bce8	0.0032613818
124	0xbd6e30e8	-0.05815211
125	0xbd43f9c3	-0.047845613
126	0xbc980697	-0.01855783
127	0x3d3c01fa	0.045900322
128	0xbcfb65b0	-0.030688137
129	0xbcb6397f	-0.022244213
130	0xbd2b98b5	-0.04189368
131	0xbcdd2e1b	-0.026999524
132	0x3d2e46f7	0.042548146
133	0x3c1d9810	0.009618774
134	0x3c6f7bad	0.014616889
135	0xbcbdd2e9	-0.023171859
136	0x3d0d5352	0.03450329
137	0x3ce1c469	0.027559476
138	0x3d8a99de	0.06767629
139	0x3c29e024	0.010368381
140	0xbc0a07be	-0.008424697
141	0xbd2a21b7	-0.04153606
142	0xbba8028f	-0.005127258
143	0xbd18b849	-0.037285123
144	0xbcdc7124	-0.026909418
145	0xbc75485d	-0.014970866
146	0xbcc55a2f	-0.024090854
147	0x3c89fc40	0.016843915
148	0xbc368df5	-0.011142244
149	0xbcd24047	-0.025665415
150	0xbb94e90c	-0.004544383
151	0xbbbd8a95	-0.0057843425
152	0x3d990a3b	0.074726544
153	0x3d6ef964	0.058343306
154	0x3ca628ff	0.02028322
155	0x3cf2b524	0.02962739
156	0xbc289ce8	-0.010291316
157	0x3d5689c4	0.052377477
158	0xbcc5c0b4	-0.02413974
159	0xbac17a34	-0.0014761151
160	0x3c9ca8c0	0.019123435
161	0xbd4bd3e5	-0.049762625
162	0xbd4db11b	-0.05021773
163	0x3c5e0ab4	0.0135523565
164	0xbba452fa	-0.0050147744
165	0xbca55d7c	-0.020186178
166	0xbd3e00f7	-0.04638764
167	0x3d3664b7	0.044529643
168	0xbcdd9e27	-0.027052952
169	0x3d5df7f6	0.054191552
170	0xbc932600	-0.017962456
171	0x3cc36d95	0.023855964
172	0xbcb9dd9e	-0.022688683
173	0x3c41322e	0.011791749
174	0xbda16ba8	-0.07881862
175	0x3cd7325a	0.026269127
176	0xbcf27381	-0.029596092
177	0xbc6702d3	-0.014099794
178	0xbd0271dc	-0.031846866
179	0x3d067289	0.032824073
180	0x3c9407ca	0.01807012
181	0xbce45153	-0.02787081
182	0x3d023789	0.031791244
183	0xbd3ea94f	-0.046548184
184	0x3d3a6b48	0.045512468
185	0xbcf0f2ce	-0.029412653
186	0x3d0a04bf	0.033695932
187	0xbcdda9fd	-0.027058596
188	0xbbcc6538	-0.006237652
189	0xbbee915c	-0.007280512
190	0xbbd2e8ea	-0.006436457
191	0x3c9d4bba	0.019201148
192	0xbcd7d91f	-0.026348649
193	0xbca93901	-0.020657064
194	0x3c99f2b2	0.018792484
195	0xbc771202	-0.015079977
196	0xbc9c625d	-0.019089872
197	0x3cb197da	0.021678854
198	0xbcfe1a09	-0.031018274
199	0x3d423293	0.047411513
200	0xbc57d9c9	-0.013174483
201	0x3cdaffa6	0.02673323
202	0xbce7dfad	-0.0283049
203	0xbb2d4db7	-0.0026444027
204	0xbbfdd2ee	-0.007746092
205	0x3cbd2d6e	0.023092952
206	0xbd26363d	-0.04057907
207	0x3cf1f76e	0.029536929
208	0xbc6a4105	-0.014297728
209	0xbc511807	-0.012762076
210	0x3c6131ff	0.01374483
211	0xbcb4f488	-0.022089258
212	0x3d29e870	0.041481435
213	0xbd05b2d3	-0.032641243
214	0x3537ef32	6.852089e-07
215	0xbca01b33	-0.01954422
216	0xbd11e65d	-0.035620082
217	0x3ccb1f81	0.024795296
218	0x3c85881c	0.016300254
219	0x3c3ace48	0.01140172
220	0x3cd6c324	0.026216097
221	0xbc91b8ee	-0.017788377
222	0xbcc6adc8	-0.024252787
223	0x3cda281d	0.026630456
224	0x3a833b52	0.0010012186
225	0x3ccef93a	0.025265325
226	0xbd5cd983	-0.053918373
227	0xbbacffe5	-0.0052795284
228	0xbd1e2d4f	-0.03861743
229	0xbb418862	-0.0029530753
230	0xbd492ed3	-0.04911692
231	0xbd42ac89	-0.047527824
232	0x3ceef7a4	0.029170819
233	0xba5576f5	-0.0008143031
234	0x3d91e11d	0.07123015
235	0x3c1027f1	0.008798585
236	0xbd8c4d1c	-0.06850645
237	0xbd47b485	-0.04875614
238	0x3da010ba	0.0781569
239	0x3d08107a	0.03321884
240	0x3cdb4d80	0.026770353
241	0xbd28e73e	-0.041236155
242	0xbc9ae679	-0.018908726
243	0xbd293613	-0.041311335
244	0x3cce8528	0.025209978
245	0x3cc91e2b	0.024550518
246	0x3b409fdb	0.0029392156
247	0xbb8b5666	-0.004252243
248	0x3cce3009	0.02516939
249	0x3d0cf182	0.034410007
250	0x3d573634	0.052541927
251	0x3ce1a550	0.027544647
252	0x3bc84127	0.0061112824
253	0x3cb7b9e5	0.022427509
254	0x3cb545e6	0.022128057
255	0xbc26870c	-0.010164034

conv4.0.bias f4 [56]
0	0xbc3267b6	-0.010888984
1	0xbc8c610d	-0.017136121
2	0xbba765e1	-0.0051085805
3	0xba1254f2	-0.0005582116
4	0x3c24f604	0.01006842
5	0xba89fce4	-0.0010527638
6	0x3c038ca6	0.008029139
7	0xbc4dfd40	-0.012572587
8	0x3c4edfa3	0.012626561
9	0x3c77d359	0.015126073
10	0x3b4cfa07	0.0031276958
11	0x3c12eb35	0.008967211
12	0x3cae1d89	0.021254318
13	0x3c48bb6a	0.012251714
14	0x3a65fed3	0.00087736285
15	0xbbcec656	-0.0063102646
16	0x3c5afd7e	0.013366101
17	0x3b2cf45f	0.0026390774
18	0xbbb634e7	-0.0055605057
19	0xbc865ee2	-0.016402666
20	0x3c6c8783	0.014436605
21	0xb99580bc	-0.0002851541
22	0x3ca92c59	0.02065103
23	0x3c25e245	0.010124748
24	0xba7817af	-0.00094639783
25	0x3ca2f61b	0.019892743
26	0x3c5b8902	0.013399364
27	0xbab900c1	-0.0014114605
28	0x3c9d0eb0	0.019172043
29	0xbc60b595	-0.0137151675
30	0x3bdde3c5	0.006771537
31	0x3c32ed7d	0.010920879
32	0xbc124780	-0.00892818
33	0x3b3141a2	0.0027047177
34	0xbc831b21	-0.016004147
35	0xbb76c05e	-0.003765128
36	0xbc0e6a2f	-0.008692308
37	0xbc21b8a4	-0.009870682
38	0xbc706512	-0.014672535
39	0xbcad8038	-0.021179304
40	0xb8bc9134	-8.991585e-05
41	0xbbc858f5	-0.00611412
42	0x3bd8088c	0.0065928157
43	0xbb93fdbc	-0.0045163315
44	0xbc93eab4	-0.018056251
45	0x3c1e183b	0.009649332
46	0x3c98b38a	0.018640298
47	0x3c44141e	0.011967687
48	0x3c34f4c5	0.011044686
49	0xbbeefd3c	-0.0072933715
50	0xbc907cf0	-0.0176377
51	0x3bbc127b	0.0057395077
52	0x3ac2103c	0.0014805864
53	0xbb7e9f3a	-0.003885223
54	0xbba7440b	-0.005104547
55	0x3bef4700	0.007302165

conv4.1.weight f4 [56]
0	0x3f889923	1.0671734
1	0x3f832052	1.0244238
2	0x3f8c6d38	1.0970831
3	0x3f7d842e	0.99029815
4	0x3f8ae91e	1.0852392
5	0x3f7f0013	0.9960949
6	0x3f90b7a3	1.1306041
7	0x3f8d6f9e	1.1049688
8	0x3f83e904	1.0305486
9	0x3f92dba7	1.1473283
10	0x3f855d04	1.0419011
11	0x3f76f7cd	0.96471864
12	0x3f81bb92	1.0135367
13	0x3f8be836	1.093024
14	0x3f7ba70e	0.9830178
15	0x3f897d98	1.0741453
16	0x3f7f000f	0.99609464
17	0x3f8ba431	1.0909482
18	0x3f8a3561	1.079754
19	0x3f82a636	1.0206974
20	0x3f813d99	1.0096923
21	0x3f7931cb	0.97341603
22	0x3f93f882	1.1560214
23	0x3f7d9b4f	0.9906511
24	0x3f8869b6	1.065726
25	0x3f9f15a3	1.2428478
26	0x3f82f77c	1.0231776
27	0x3f84d87e	1.0378568
28	0x3f840162	1.0312922
29	0x3f7c7fec	0.98632693
30	0x3f7cc1a4	0.9873297
31	0x3f78d29a	0.9719635
32	0x3f841fa8	1.0322161
33	0x3f7a0584	0.97664666
34	0x3f7da9d7	0.9908728
35	0x3f7c37a8	0.98522425
36	0x3f7b71db	0.98220605
37	0x3f8aa3bc	1.0831218
38	0x3f9b8151	1.2148839
39	0x3f859862	1.0437129
40	0x3f853ada	1.0408585
41	0x3f80d9fe	1.0066526
42	0x3f8b1381	1.0865327
43	0x3f7d5be3	0.98968333
44	0x3f79a5b5	0.97518474
45	0x3f7f47b3	0.9971878
46	0x3f815b64	1.0106015
47	0x3f7ca142	0.9868356
48	0x3f8e2bb5	1.1107088
49	0x3f8375fc	1.0270381
50	0x3f7dd5b5	0.99154216
51	0x3f8644dc	1.0489764
52	0x3f8174b4	1.011374
53	0x3f820fca	1.0161068
54	0x3f809488	1.0045328
55	0x3f892138	1.0713263

conv4.1.bias f4 [56]
0	0xbca921e6	-0.020646047
1	0x3b958e6a	0.004564096
2	0xbacaf63c	-0.001548476
3	0x39d5b33a	0.0004076006
4	0xb992d20b	-0.00028003784
5	0xbc4cc333	-0.012497711
6	0x39a6dcd4	0.00031826517
7	0xbba69131	-0.005083226
8	0xbbe22087	-0.00690085
9	0xbcb4b6f8	-0.022059903
10	0x3aa2ad85	0.0012411332
11	0x3c5e661c	0.013574149
12	0x3becb757	0.0072240043
13	0x3ba292e0	0.0049613565
14	0x3b27ea3e	0.0025621797
15	0xbb1b4e44	-0.0023697773
16	0xbc8d23a1	-0.017228903
17	0xbc804f00	-0.01566267
18	0xbc1b9f8b	-0.009498487
19	0xbc4b2a23	-0.012400183
20	0x3c382634	0.011239577
21	0x3c091e66	0.008369064
22	0xbb4754d7	-0.0030415559
23	0x3baf9c1e	0.005359187
24	0xbc2f9355	-0.010716279
25	0xbc991dc3	-0.01869095
26	0x3c2ec864	0.010667894
27	0xbb3bd52c	-0.0028660996
28	0xbc8d601d	-0.017257744
29	0x3c75f8b0	0.015012905
30	0xbc4f773c	-0.012662705
31	0x3c038628	0.008027591
32	0xbc36b371	-0.011151181
33	0x3a134540	0.0005617924
34	0x3ad8e319	0.0016547173
35	0xba0c3366	-0.0005348235
36	0xbb0265ab	-0.0019897025
37	0x3c273aad	0.0102068605
38	0x3c51ddd5	0.0128092365
39	0x3c309689	0.010778078
40	0xbbcd9373	-0.006273681
41	0x3c3f72a2	0.011685045
42	0x3bb110e8	0.0054036267
43	0x3c0db3e9	0.008648851
44	0xbafca333	-0.0019274711
45	0x3b28f998	0.0025783535
46	0x3bb63f9d	0.0055617825
47	0x3bb67c24	0.005568998
48	0x3ce9ff25	0.028564045
49	0xbc90e602	-0.017687801
50	0xbc055936	-0.008138945
51	0x3cf8cdad	0.030371511
52	0xbc4f44a2	-0.012650641
53	0x3cd2a0fc	0.025711529
54	0xbbc67890	-0.0060568526
55	0xbcc41dc9	-0.023939984

conv4.1.running_mean f4 [56]
0	0xbc1d1fd3	-0.009590107
1	0xbc4877e5	-0.012235616
2	0xbc18173f	-0.009282886
3	0x3d15323e	0.036424868
4	0x3c9416f3	0.01807735
5	0x3c3caed9	0.011516296
6	0x3c5df362	0.0135467965
7	0xbc9101f9	-0.017701136
8	0x3b446e1b	0.0029972855
9	0x3c98d4f7	0.018656237
10	0x3bdcdf30	0.006740473
11	0x3c1269bd	0.008936343
12	0x3cb6120e	0.022225406
13	0x3cd052bc	0.025430076
14	0xbcea9404	-0.028635032
15	0xbc242a34	-0.010019828
16	0x3c2d6f3b	0.010585601
17	0x3b57c407	0.0032923238
18	0xbb9a2e46	-0.0047052233
19	0xbc00dec3	-0.0078656105
20	0x3c785418	0.015156768
21	0x3cfe99b2	0.031079147
22	0x3c61fc18	0.013793014
23	0xbc2079a0	-0.009794623
24	0xbab114bc	-0.0013510208
25	0x3d06df96	0.032928072
26	0x3bc93a41	0.0061409776
27	0xbc206eb1	-0.009792016
28	0x3c395fec	0.011314373
29	0xbc590268	-0.013245203
30	0x3c8aa028	0.016922072
31	0x3d0c65b1	0.034276668
32	0xbb52829e	-0.003212131
33	0x3c7d00dc	0.015442099
34	0xbce06532	-0.027392004
35	0x3cee2f70	0.029075354
36	0xbc846621	-0.01616198
37	0xbb2931b0	-0.002581697
38	0xbcac43e6	-0.02102847
39	0xbcc3c4aa	-0.023897488
40	0x3b10d054	0.002209683
41	0xbc83b126	-0.016075682
42	0x3c457414	0.012051601
43	0x3d09e15d	0.03366219
44	0xbc6b3fe2	-0.014358493
45	0x3b1fb398	0.002436852
46	0x3cedc973	0.029026723
47	0x3d42c69c	0.04755269
48	0x3c1acb98	0.009447955
49	0xbbdb73fb	-0.0066971756
50	0xbcbaee00	-0.022818565
51	0x3c5a4d31	0.013324068
52	0xbbe8f827	-0.00710966
53	0xbc38328c	-0.01124252
54	0xbc92a905	-0.01790286
55	0x3bb99c93	0.005664417
